…
 1/44 [..............................] - ETA: 0s - loss: 5.1859e-04 - accuracy: 1.000031/44 [====================>.........] - ETA: 0s - loss: 0.0034 - accuracy: 0.9995    44/44 [==============================] - 0s 3ms/step - loss: 0.0026 - accuracy: 0.9996 - val_loss: 1.5374e-04 - val_accuracy: 1.0000

Final epoch (plot to see history):
        loss: 0.002573
    accuracy: 0.9996
    val_loss: 0.0001537
val_accuracy: 1 
Model: "sequential"
________________________________________________________________________________
 Layer (type)                       Output Shape                    Param #     
================================================================================
 dense_13 (Dense)                   (None, 5)                       110         
 dense_12 (Dense)                   (None, 20)                      120         
 dense_11 (Dense)                   (None, 5)                       105         
 dense_10 (Dense)                   (None, 10)                      60          
 dense_9 (Dense)                    (None, 5)                       55          
 dense_8 (Dense)                    (None, 10)                      60          
 dense_7 (Dense)                    (None, 5)                       55          
 dense_6 (Dense)                    (None, 10)                      60          
 dense_5 (Dense)                    (None, 5)                       55          
 dense_4 (Dense)                    (None, 10)                      60          
 dense_3 (Dense)                    (None, 5)                       55          
 dense_2 (Dense)                    (None, 10)                      60          
 dense_1 (Dense)                    (None, 5)                       55          
 dense (Dense)                      (None, 1)                       6           
================================================================================
Total params: 916
Trainable params: 916
Non-trainable params: 0
________________________________________________________________________________
> 
> 
> 
> ## Ablation study
> ablation = 1
> if (ablation==1){
+   final_res <- NULL;
+   ablation = 1:21
+   for (a in ablation){
+     for (v in 1:length(validation_split)){
…
